rscanner/state_dicts/model.pt (torch_old, 97482 bytes, 4 tensors)

i2h.weight f4 [128, 185]
000000 a5 3a db bc 7a fd 94 bd c8 16 19 bd f0 c2 19 3c
       -0.026761362 -0.07274909 -0.03737524 0.009384856
000010 d9 14 75 3c d9 6e b6 bd d0 b8 99 bb 7d c3 ce bc
       0.014958584 -0.08907861 -0.004691221 -0.0252397
000020 fa b6 19 3d d3 87 16 bd b8 00 72 bc 65 fc bf bd
       0.037528016 -0.036750626 -0.014770679 -0.09374312
000030 78 79 58 3d 2c fa ec bd 6c 69 17 3d 89 a8 a6 bd
       0.052850217 -0.11571154 0.036965773 -0.08137614
000040 00 dc 26 3d 12 a9 86 3d f0 30 7b 3c 3b 41 b8 bd
       0.040737152 0.06575216 0.015331492 -0.08996817
000050 d0 35 dc bc fc 1a 57 3d 2a 75 8b 3d e4 06 09 3d
       -0.026881129 0.05251597 0.06809457 0.033453837
000060 bc ea 88 bc e4 fa 7f 3d 4b a7 76 3d 07 22 69 bd
       -0.016713493 0.062495127 0.060218137 -0.056917217
000070 69 19 e3 bb 60 08 13 3c b0 4b 47 bd 87 61 0f bd
       -0.0069305194 0.008974165 -0.048656166 -0.03500512
000080 f8 38 7b bc 81 b8 a0 3d 0c 90 d2 bc 6e a8 2b 3d
       -0.015333407 0.07847691 -0.025703453 0.041908674
000090 4b 97 33 3d 61 5d 1f 3e 1a 42 58 bb 3d 1f 08 3d
       0.043845456 0.15562965 -0.0032998384 0.033232916
0000a0 02 62 ad bc f1 85 81 3d 66 d7 89 bd 05 0e 3f b8
       -0.021164898 0.063243754 -0.06730537 -4.5551005e-05
0000b0 3f cc 35 3c 34 6a 29 bd 4d c2 42 3c a7 c5 12 3c
       0.011096059 -0.04136105 0.011887145 0.008958257
0000c0 33 c0 22 bd f0 24 65 bc 8d 42 5d 3d d0 80 fd bb
       -0.039734077 -0.013985857 0.054018546 -0.007736303
0000d0 00 c0 f4 38 80 8b e4 3b 3d f3 04 bd 5d 0c 0f bd
       0.000116705894 0.0069746375 -0.032458533 -0.0349239
0000e0 b0 95 86 bc ec 8f b6 ba ea 41 65 3d 94 85 48 3d
       -0.016428798 -0.001392839 0.055971064 0.048955515
0000f0 b6 fe 9c 3c 0b c7 ae bd ee 3b 45 bd 5c 2d 1b bd
       0.019164424 -0.08534058 -0.048152857 -0.037885055
000100 dc a0 04 bd fe e1 9f bc ed 3b 77 3d a7 fd 0e bd
       -0.03237997 -0.019516941 0.060359884 -0.03490987
000110 af 29 44 3d a4 f2 8e bc 41 a7 71 bc ff a1 84 bd
       0.047891315 -0.017449684 -0.014749349 -0.06476211
000120 6f d9 dd 3c b9 a7 50 bd c1 ef de bc 27 cb 41 bd
       0.02708122 -0.050941203 -0.027213933 -0.04731288
000130 d6 48 2f bd 6f 46 d7 bc 6e 91 45 3d e9 4a f5 bc
       -0.04279407 -0.026278703 0.048234396 -0.029942947
000140 80 15 0e 3b 74 1d 28 3d 21 e2 21 bc 0d 64 ce bb
       0.0021680295 0.041043714 -0.0098805735 -0.006298548
000150 26 74 a0 3c a6 08 63 bd 36 a0 1a 3d 10 40 5c 3d
       0.019586634 -0.05542817 0.037750445 0.053772032
000160 6a b7 79 bd ba 66 f3 3c 93 2b d6 bc 33 fa 76 bd
       -0.060965933 0.02971207 -0.026143825 -0.060297202
000170 78 f8 b5 3d 61 7e 91 3c a0 98 01 bd ba a0 01 3b
       0.08885282 0.017760457 -0.031639695 0.0019779638
000180 23 96 bf 3c 64 7b d5 3c 75 8c 29 bd 9e e0 39 3d
       0.02338702 0.026059814 -0.041393716 0.045380227
000190 b6 10 f6 bc 8e d4 a3 3d c6 68 d4 bc b4 51 44 3c
       -0.030037265 0.07999526 -0.025928866 0.01198237
0001a0 bc 13 4c bd 41 6c 23 3c 80 7d d1 3c 61 9e e0 bc
       -0.049823508 0.00997454 0.025572538 -0.027419271
0001b0 9e 08 30 bd b7 26 b2 bd f5 89 b2 bc 98 fc 91 3c
       -0.042976968 -0.086987905 -0.021794299 0.017820641
0001c0 13 fc 03 3d a0 2a a1 3d ce a1 37 ba 6b e4 bd 3d
       0.03222282 0.07869458 -0.0007005007 0.09272083
0001d0 27 72 52 3d 3b 25 53 bd 31 3b 1d 3d c3 71 53 3d
       0.051378395 -0.051549178 0.038386527 0.051622164
0001e0 3c 49 17 3d 3c c0 03 3d aa 39 50 bd 14 c4 ae bc
       0.036935076 0.03216575 -0.050836243 -0.021333732
0001f0 6c ae 76 bc e8 fc 73 bc d2 ce b2 3c 17 c8 a1 3c
       -0.015056234 -0.0148918405 0.021827135 0.01974873
000200 fc fd 80 bb 49 69 0e bd 9e 77 66 bd 4d d7 54 bc
       -0.0039365273 -0.034768376 -0.05626642 -0.012990785
000210 51 fe 5c 3d 69 4f 3e 3d 13 bc 6a bc de 47 e1 3c
       0.053953473 0.04646245 -0.014327067 0.02750009
000220 5f 3b f5 3c 72 da b0 3c af 86 4c 3d d3 81 06 bd
       0.029935537 0.021588538 0.04993313 -0.032838654
000230 dc a1 07 3d 08 25 81 3d 00 f3 85 3d 49 2d a9 bd
       0.033113346 0.06305891 0.06540489 -0.082605906
000240 bb 00 e3 3d 2c 34 29 bd a8 be a8 b9 f5 c4 9b 3d
       0.11084124 -0.04130952 -0.00032185507 0.07605926
000250 a4 fc 52 3d 22 b9 ad bc 7c 57 80 3d 2d c5 af 3d
       0.051510468 -0.021206442 0.06266686 0.0858253
000260 7d d5 5e bd ff 90 52 bd 5f 33 2f bd 21 f4 4a bc
       -0.054402817 -0.05140781 -0.0427736 -0.012387306
000270 6e d2 be 3d 6b 22 9f 3c 94 8a 56 3d a9 c3 6c bd
       0.0931748 0.019425591 0.052378252 -0.057803784
000280 1e 2c 88 bd 25 2c ab 3d f7 06 f7 bb 62 0c 33 bd
       -0.0664904 0.08358029 -0.007538672 -0.04371298
000290 7a 0d b4 3d 30 cd 1c 3d 60 f3 e6 bc 26 0d 95 bc
       0.08791633 0.03828162 -0.028192222 -0.018194746
0002a0 03 99 85 bd 09 0c d8 bc 06 4c 4d bd 28 38 23 3d
       -0.06523325 -0.026372926 -0.05012133 0.039848477
0002b0 95 dc ab 3d 64 b7 76 bc 80 6a 49 bd a6 e5 48 3d
       0.08391682 -0.015058372 -0.049173832 0.049047135
0002c0 47 32 01 bd 97 0c 1f bd 3a 86 ec 3c 92 91 b4 3d
       -0.03154209 -0.038830366 0.028872598 0.08816828
0002d0 da 06 c9 3c 9a 32 9e bd 24 15 5e bd e9 f1 09 bd
       0.0245394 -0.07724495 -0.05421938 -0.03367797
0002e0 0d 11 43 bd be ad 96 3c b6 0e 1e 3d 7c 2c 65 bd
       -0.047623683 0.018393394 0.03858825 -0.055950627
0002f0 82 fb 69 bd e3 70 60 3c 52 5d 88 3d 18 bc 4d bc
       -0.057124622 0.013698789 0.066584244 -0.012557052
000300 6d 11 2f 3d df 34 86 bd 5c b9 f0 3c 20 53 f4 3c
       0.042741228 -0.06553053 0.029385261 0.029824793
000310 0e 5a 46 3d 80 ed c8 bb b3 48 0c 3c aa fd 46 bd
       0.048425727 -0.006131828 0.008562255 -0.048581757
000320 04 33 70 3d e4 b3 fd bc c8 36 31 3d 9e 37 b4 bc
       0.058642402 -0.030969568 0.043265134 -0.021999177
000330 ae d7 dd bb 58 ec e3 bc 20 c7 6d 3d 28 bd ad 3c
       -0.006770096 -0.027822658 0.05805123 0.02120836
000340 fc 8c 41 bd c6 e2 33 bd a4 02 75 3d db 03 b3 3c
       -0.047253594 -0.04391744 0.05981697 0.021852424
000350 3b fb 48 3d 75 1e d4 3c eb f2 1c 3b f9 2e 5e bd
       0.049067717 0.02589343 0.0023948501 -0.054244015
000360 38 2f 08 3d fe 5d fc bc 0b bf 40 bc a5 58 49 bd
       0.033248156 -0.030806538 -0.011764298 -0.049156804
000370 40 b0 95 3d 0c 9d bd 3c ff 78 87 bc ac f5 6e 3d
       0.07309008 0.023146175 -0.016537188 0.05833976
000380 a0 61 2d 3d 92 23 64 3d 6b dc 78 bd 20 cb ec 3b
       0.04232943 0.055697985 -0.060757082 0.007226363
000390 26 0c 94 bd 2b dd 44 3d 54 03 4e 3b cf e4 90 bd
       -0.0722888 0.048062485 0.003143509 -0.07074892
0003a0 ce 68 a0 bc 20 7b 7e 3d 97 52 32 bd af 47 fe bc
       -0.019581225 0.06212914 -0.043535795 -0.03104004
0003b0 24 76 c4 bc 9c 29 92 bc 2c 3f 96 3d 3e 75 34 3d
       -0.023982115 -0.017842107 0.07336268 0.044057123
0003c0 9e 20 91 bc d0 b7 f6 3b ee 20 10 3d 86 21 38 3b
       -0.017715748 0.0075292364 0.035187654 0.0028096153
0003d0 d7 aa 43 bc 52 cb 89 3d f9 49 a2 bb 23 c1 4e bb
       -0.011942587 0.067282334 -0.004952666 -0.0031548224
0003e0 23 89 60 bd 77 d4 ec 3c b1 47 28 bd ab f7 1f 3c
       -0.054818284 0.028909905 -0.041083995 0.0097636385
0003f0 b3 9b 4a bd ce cd 86 bd 88 98 49 bd eb 86 2e 3d
       -0.049464893 -0.06582223 -0.04921773 0.042609137

i2h.bias f4 [128]
000000 f0 6b b0 bc 01 f8 5d bc ee 7a 38 be 22 c0 c0 bb
       -0.021535844 -0.013547898 -0.18015644 -0.005882279
000010 81 64 07 3e a2 7b 93 bc 56 3e 03 be ca e2 99 bd
       0.13221933 -0.018003289 -0.12816748 -0.0751396
000020 68 41 e6 3d 5c aa 26 be dd 47 40 be f7 d4 6b 3d
       0.11242944 -0.16275924 -0.18777414 0.057576146
000030 89 13 85 3d 6b 27 91 3d aa b9 0c 3e e2 2c 80 bd
       0.06497867 0.070875965 0.137427 -0.06258561
000040 16 4d de 3d ce 84 41 be 41 cb 36 bc 8e 58 e3 bc
       0.10854547 -0.18898317 -0.011156858 -0.027752187
000050 1a 60 9d 3d 33 ac e5 3c 93 22 91 3d 03 06 af bd
       0.076843455 0.028036213 0.07086673 -0.085460685
000060 4c 37 e2 bc 2e c0 c0 bd 1a b7 01 3c ab 03 91 3c
       -0.027614258 -0.09411655 0.00791719 0.017701944
000070 89 bf c5 3d fc 41 60 3d 0d bc bb 3d e3 c4 92 3d
       0.09655673 0.054750428 0.09166727 0.071664594
000080 01 e8 02 3d 4f 80 b4 3c da 2e b8 bd f6 32 06 3c
       0.031959537 0.022033839 -0.08993311 0.008190861
000090 4b 72 d8 3d 9e d3 80 3d 21 31 9f bd 70 3c 0c bd
       0.10568675 0.06290363 -0.077730425 -0.034237325
0000a0 54 51 30 3d c7 3a 99 3c 28 4d 95 3d 05 e6 29 3d
       0.04304631 0.018704785 0.07290107 0.04147913
0000b0 f6 4e e7 3d ba c1 26 be 2a bf fb bb 6c 32 89 bc
       0.112943575 -0.16284838 -0.0076827006 -0.016747676
0000c0 f2 11 b0 3d 41 da a9 3c 9f 7f 86 bd a5 20 7c bd
       0.08597173 0.020733954 -0.065673105 -0.06155457
0000d0 c7 4e 86 bd 42 9e 9f 3d 7d 9d 07 bd 20 fc 76 bb
       -0.06557994 0.07793857 -0.033109177 -0.00376869
0000e0 a4 0e 93 bd 77 c2 b5 bc 8a ee 04 be 7f 2c 74 3d
       -0.07180527 -0.022187455 -0.1298162 0.059612747
0000f0 c6 5d 25 3d 51 5d 8a 3d 99 44 f4 bd 04 e7 ec 3c
       0.040372632 0.0675608 -0.119271465 0.02891875
000100 0e f1 26 3e 62 ad 16 be f3 d6 13 be fc d6 e7 3d
       0.16302893 -0.14714578 -0.14437465 0.11320302
000110 1b 3b 0d bd b9 f9 a9 3d 68 c0 b8 3d 2a a4 3e bd
       -0.034480195 0.08299584 0.090210736 -0.046543278
000120 91 c3 16 be 24 67 19 bc c8 8e 63 3d b6 32 f6 3c
       -0.1472304 -0.00936297 0.05555609 0.030053478
000130 07 65 c9 3d d3 c1 9c 3d 8b 68 84 bd 4e b2 53 bd
       0.098337226 0.076541565 -0.064652525 -0.051683716
000140 5b 7c fe bc a1 92 3a bc 83 19 4e 3a be f8 08 3e
       -0.031065157 -0.011387498 0.0007862078 0.13376138
000150 a0 4e 2b bd 63 4b 8f bd 81 50 98 bd 5b e2 4e 3c
       -0.04182303 -0.06996801 -0.0743723 0.01262721
000160 c8 72 69 bd cb 7c cd bd 5f e7 bd bd c0 f7 22 bd
       -0.05699423 -0.10033568 -0.09272646 -0.039787054
000170 af dc ee bb e8 60 52 bd de fb 06 bd 10 ea 99 bd
       -0.007289491 -0.05136195 -0.032955043 -0.07515347
000180 f5 ad 19 be 8c c6 7b 3b e1 63 b0 3d cc c7 01 be
       -0.15007766 0.0038417904 0.086128004 -0.12673873
000190 09 d5 7c bd 4c 39 4d bd 5e 33 dd 3c ea d2 93 bc
       -0.061726604 -0.05010347 0.027002033 -0.018044908
0001a0 c6 ad 9e 3d 2f 8a 3a 3c f7 75 58 bd 19 b5 24 bc
       0.077479884 0.011385485 -0.052846875 -0.010052943
0001b0 b0 f3 a8 bd d0 6c fb 3d 26 cf a3 3c 74 47 21 bc
       -0.08249605 0.12276614 0.019996237 -0.009843696
0001c0 a1 26 f1 bb 2b 8d 5f 3d 0d 98 68 bd 06 12 e0 ba
       -0.0073593413 0.054577988 -0.056785632 -0.0017095215
0001d0 f6 06 84 3d 97 90 08 3e 7c b8 65 bc 02 d2 2c 3d
       0.0644664 0.13336407 -0.014021035 0.042192467
0001e0 1d c4 44 3c 53 09 ca 3a 0d 96 2e 3d 7b 9a 83 bd
       0.012009648 0.0015414156 0.04262357 -0.06425949
0001f0 2f f0 96 3d 01 ab ec 3d 00 5b 04 3e 34 3a 33 3c
       0.0737003 0.11556054 0.12925339 0.01093917

i2o.weight f4 [2, 185]
000000 18 52 4e 3d 30 b0 4c 3c a8 06 d6 bc ec cf 12 3d
       0.05037126 0.012493178 -0.02612622 0.03584282
000010 80 ef 3d 3c 00 6d 3f bb 44 12 18 3d 88 80 3d bd
       0.011592746 -0.0029209256 0.037126794 -0.046265155
000020 1b 0b 8c bd a0 be 52 bb 27 e5 f0 3d 28 cf bb 3e
       -0.06838056 -0.0032157078 0.11762457 0.36681485
000030 62 c7 3e bd f0 6e 87 bb ec a9 4c bd de 99 df bc
       -0.046576865 -0.004133098 -0.049966738 -0.02729505
000040 26 11 82 bd c0 2c 3c 3e d0 22 19 3c c4 0c 9b 3c
       -0.06350927 0.18376446 0.009346679 0.018926986
000050 e6 13 94 3d dd f7 8b bd 76 04 35 bd 7b 05 cc 3e
       0.07230358 -0.068343855 -0.044193707 0.3984793
000060 85 a0 1c bd 68 53 5b 3e 9d ef 05 3f 71 17 a0 3e
       -0.03823902 0.21418536 0.52318746 0.31267884
000070 04 75 86 bd 48 56 04 3e 37 cf d4 be a2 cd d1 bc
       -0.06565288 0.12923539 -0.41564342 -0.025610749
000080 c8 06 6e 3c f3 a0 6e bd b4 2d 90 3c 2a bf 25 3d
       0.014527984 -0.058258962 0.017599918 0.04046551
000090 50 a4 a2 3e f8 cd a8 bc a8 a2 3a bc 28 d9 44 3c
       0.31765985 -0.020606026 -0.011391319 0.012014665
0000a0 18 0c 02 3d 41 00 b7 3e 10 42 fa 3b 37 87 3a bd
       0.031749815 0.3574238 0.00763727 -0.045539107
0000b0 06 a1 36 bd fc 45 88 3d 28 f1 32 3c 63 87 37 bd
       -0.044587158 0.066539735 0.010921754 -0.04480685
0000c0 d8 41 6f 3d 50 f6 8b bd 40 de ac bb 40 4a 6f 3b
       0.058412403 -0.0683409 -0.0052755177 0.0036512762
0000d0 38 74 c4 3c a0 9d 29 bc 70 41 be bc 2c 7c ce bc
       0.023981199 -0.010352522 -0.023224562 -0.025205694
0000e0 88 a0 88 3d dd 74 f8 bd a9 51 22 bc e2 86 94 be
       0.06671244 -0.12131665 -0.009907165 -0.29009157
0000f0 99 c5 bb 3d fb 0e 2f 3e d4 21 ce 3c 3d 50 e1 bd
       0.09168548 0.17095558 0.025162615 -0.11001632
000100 1a c4 49 bd c8 fb 58 3e bd 60 7d be f9 64 29 be
       -0.049259283 0.21189797 -0.24743934 -0.16542424
000110 89 49 0a 3e d0 27 52 bd 09 6e a2 3d a1 8a 54 3e
       0.13504614 -0.0513075 0.07931144 0.20756008
000120 eb c3 bd bd 64 75 dc 3d 9d 8a 91 be 6b 04 f8 3c
       -0.09265884 0.10764578 -0.28426066 0.030275544
000130 b2 ff 1a 3e 6c 54 02 3e 8f 5c a3 3c c2 72 cc bc
       0.15136603 0.12727517 0.019941596 -0.024957065
000140 2a 3a e9 bd 0d e5 c4 bd 50 6a e6 bd 33 75 cf 3b
       -0.11388047 -0.096140005 -0.11250746 0.00633111
000150 6f 26 a6 3c 5b d8 2f 3e 40 43 88 3c b5 25 1f 3d
       0.020281998 0.17172377 0.01663363 0.03885432
000160 cc 42 8f 3d db 8b 64 bc 41 7e c4 3c a5 95 13 bd
       0.06995162 -0.01394936 0.023985984 -0.036031384
000170 e3 3f 95 bd f6 70 64 3d c9 ba a7 3d 54 81 f1 bd
       -0.07287576 0.05577179 0.08189923 -0.117922455
000180 ec 53 92 bd 0d 52 8b 3d df af b3 3c 97 79 b6 3c
       -0.07144913 0.06802759 0.021934448 0.022274775
000190 2a 50 84 3d e7 17 79 bc b9 bd 0f be 6d 33 bf bc
       0.064606026 -0.015203453 -0.14037217 -0.023339951
0001a0 d3 de 9c 3d 44 e4 24 3d 7b 65 d5 bb ec df ff 3c
       0.07659688 0.040256754 -0.0065123416 0.031234704
0001b0 6f 11 98 3d bf b9 30 bd f9 24 e8 3d b2 3e 53 bd
       0.074252 -0.04314589 0.11335177 -0.051573463
0001c0 65 d0 00 3c 95 fd ab bd bd f2 9f bd 29 33 44 be
       0.007862185 -0.08397976 -0.078099705 -0.19160141
0001d0 a9 88 90 3d d3 30 16 bc 97 e2 f9 3d d5 a4 8b bd
       0.07057316 -0.009166914 0.12201422 -0.068185486
0001e0 de ac b9 3c 57 8a ed 3d d1 29 de bd f1 aa df bd
       0.022665437 0.11598652 -0.108478196 -0.10921276
0001f0 66 1e d3 3d 12 aa 83 bd 50 a4 e3 3d 79 cb 48 3d
       0.103085324 -0.06428923 0.111153245 0.04902217
000200 02 ff 8a 3c d1 45 2e be a6 6d dd bb 8f ba f7 3d
       0.0169673 -0.1701882 -0.006757456 0.1209613
000210 71 24 43 bd 57 81 dd 3d d7 16 15 3e e6 eb 0b be
       -0.047642175 0.10815685 0.14559494 -0.13664207
000220 fa 3e b7 bc 1f 15 93 3d ad 31 06 3e 5c 4f f0 3c
       -0.022368897 0.07181763 0.13104887 0.029334716
000230 66 13 05 3d f9 2b 4f be a1 35 03 be 58 31 09 3d
       0.032489203 -0.20231618 -0.12813427 0.033494323
000240 63 db a4 bd e9 da 12 be 6a 90 14 be 2f 24 1b be
       -0.08049657 -0.1434132 -0.14508215 -0.15150522
000250 70 80 c0 bd e4 04 35 3d f1 78 35 bd 69 39 0f be
       -0.093994975 0.044194117 -0.04430479 -0.13986744
000260 ee 03 16 be 84 b2 28 be 91 79 9e 3a 18 37 02 3e
       -0.14649937 -0.16474348 0.0012090673 0.12716329
000270 da fa 26 be 52 1b ce 3b 94 31 3e bd 85 e9 1b bd
       -0.1630663 0.006289878 -0.046434 -0.0380645
000280 5b 28 15 bc 70 ff 2b bd 6d 47 a4 3d 60 8b 09 bd
       -0.00910386 -0.04199165 0.08021436 -0.033580184
000290 64 08 27 bd b7 1b 46 bc 8e 3d cd 3d bc 23 31 be
       -0.040779486 -0.012091569 0.10021506 -0.17298788
0002a0 97 aa 8f 3d 28 ff e6 3d 3e b6 4d bd 14 b9 e0 bd
       0.07014959 0.11279136 -0.050222628 -0.10972801
0002b0 25 a9 5f bd 4a e3 eb 3c 1b 90 78 3d 57 50 10 be
       -0.05460467 0.028794903 0.060684305 -0.14093147
0002c0 cb 4d 6c bc 70 57 cd 3c 8a 8b e9 3c 67 60 a0 bd
       -0.014422844 0.025066108 0.02850892 -0.07830887
0002d0 c5 9e de bc 76 f6 a4 3d f8 94 12 3e a4 8d 80 3e
       -0.027175317 0.08054821 0.1431464 0.25108063
0002e0 6b f8 d1 bd 97 1a 91 bd 58 4f 92 3d 0d 84 2d bd
       -0.1025246 -0.0708515 0.0714404 -0.04236226
0002f0 9e 27 47 bd 00 1f 9c 39 54 0e 16 3d 84 a5 86 bd
       -0.048621766 0.00029777735 0.036634758 -0.06574538
000300 40 7c 9c 3b 86 93 80 bd 0e be 31 3d aa f1 7b be
       0.004775554 -0.06278138 0.04339414 -0.24603906
000310 27 a7 8e be c8 f5 01 3c c8 91 08 3c 14 e0 93 3c
       -0.27861902 0.007932134 0.008335538 0.018051185
000320 00 90 f1 37 fe 1d 0b bd 28 3d 96 be a0 bf 55 bd
       2.8796494e-05 -0.03396415 -0.29343534 -0.0521847
000330 a0 5d 8e 3b d5 d1 2f bd 24 39 5c bd 62 52 20 bd
       0.004344657 -0.04292472 -0.05376543 -0.039141066
000340 54 93 89 be 94 53 96 3d b1 6d 68 be 22 0f 09 bf
       -0.26870215 0.0734016 -0.22698094 -0.53538716
000350 c9 51 b0 be d9 da 92 bd 92 62 e5 bd 55 3d ba 3e
       -0.34437397 -0.07170648 -0.112004414 0.36374918
000360 e0 b3 ea bc 92 f6 58 bd 89 c1 68 bd b0 5c c4 3b
       -0.028650224 -0.052969523 -0.056825195 0.0059924945
000370 26 f4 5a bd a5 28 b5 be 18 e7 8f 3d 58 51 4a bd
       -0.053455494 -0.35382572 0.070264995 -0.04939398
000380 c0 ce 90 ba a8 6a 03 3c 7f e5 a7 be b8 0e 58 3d
       -0.0011047944 0.008021034 -0.3279228 0.052748412
000390 d0 77 f5 bb b9 7c 5a bd bb ca 2b bd 50 d7 a6 bb
       -0.0074910894 -0.0533416 -0.041941386 -0.005091585
0003a0 dc 51 f9 3c 1a 59 89 3d 00 d1 89 3a e4 e8 ae 3c
       0.030434541 0.06706448 0.0010514557 0.021351285
0003b0 e4 2f 08 3d c0 b4 5f 3d 60 a8 a8 3b e6 67 91 bc
       0.033248797 0.054615736 0.005147025 -0.017749738
0003c0 60 f9 36 3b 57 44 3f bd 2a 7a 19 3e 29 db 20 bc
       0.0027919635 -0.046696033 0.14988008 -0.009817877
0003d0 87 79 a2 3e 66 f7 8b bd aa 53 34 be 3b 4d fe ba
       0.31733343 -0.06834297 -0.1761004 -0.0019401679
0003e0 a3 59 6b 3d be 43 5f bc 75 e8 76 be d2 68 75 3e
       0.05745853 -0.013626991 -0.24112113 0.23965767
0003f0 4f 3c 4d 3e c5 62 be bd 59 71 b4 bc 28 0a 6c bd
       0.20042537 -0.092961825 -0.022026705 -0.057626873

i2o.bias f4 [2]
000000 87 97 22 40 cb b1 23 c0
       2.5404985 -2.5577266
