rscanner/state_dicts/model.pt (torch_old, 101370 bytes, 4 tensors)

i2h.weight f4 [128, 191]
000000 69 f1 0f bd 40 d5 fd ba c4 f8 08 3d 10 49 85 3d
       -0.035142336 -0.0019365922 0.033440366 0.06508076
000010 ee a2 91 3d 0e 2e 84 3d c8 87 5e 3c f0 31 15 3d
       0.071111545 0.06454097 0.013582177 0.036424577
000020 8a a0 82 bd f2 24 69 bd 00 f5 c2 bb bc 64 c9 3c
       -0.06378277 -0.05692 -0.0059496164 0.024584167
000030 f4 76 e1 3c 6d 0b 60 bd 68 9a 45 3d 40 72 cc bb
       0.027522542 -0.054698396 0.048242956 -0.0062392056
000040 20 44 12 3b 00 2a fb 3a 13 de 84 bd b5 2e 01 bd
       0.0022318438 0.0019162297 -0.0648767 -0.031538684
000050 38 6c e5 3c 94 e2 1d 3d f0 5f 36 3c 16 cd 16 3d
       0.028005704 0.03854616 0.011131272 0.03681668
000060 00 75 6f 3a 40 83 32 3b a8 06 a8 3c ab 63 c7 3b
       0.0009134561 0.0027238876 0.020510986 0.0060848794
000070 6b ec 13 3d ae 5b 12 3d c0 34 fc 3c 3f b7 5a 3d
       0.036114138 0.035731964 0.030786872 0.053397413
000080 7a c6 fd 3c 6b 4c 3f 3d c2 b2 39 bc 40 3f 95 ba
       0.03097843 0.046703737 -0.011334123 -0.0011386648
000090 65 c1 be bb 21 6e 89 3d 3e f9 e1 bc d0 f2 51 bd
       -0.0058213943 0.067104585 -0.027584668 -0.051256955
0000a0 ed 71 5d 3b 75 d0 97 3c 24 c2 7c bd b4 3e f2 3d
       0.003378983 0.018532017 -0.061708584 0.11828366
0000b0 e0 a3 79 bd c8 3e cf 3d 50 04 28 bd e8 f1 4b bd
       -0.0609473 0.101193964 -0.041019738 -0.049791247
0000c0 0b 98 52 bd 7c b9 cb 3c d6 28 89 3d 1a 63 4e 3d
       -0.05141453 0.02486872 0.06697242 0.05038748
0000d0 70 3f fb 3b 6a 48 10 3d 72 c2 2b 3d a8 60 73 3d
       0.0076674744 0.03522531 0.041933484 0.05941835
0000e0 c5 dd 47 bd 58 99 78 3d 40 e7 14 3b ae 82 6e bd
       -0.04879548 0.060693115 0.0022720844 -0.058230095
0000f0 70 5c a2 3c 8c f8 02 3d 91 a5 61 bd f9 0f 7d ba
       0.019819468 0.031975314 -0.055089537 -0.0009653564
000100 67 a0 00 bd f9 42 45 3d 33 15 59 3c d2 86 0a 3d
       -0.03140297 0.048159573 0.013249683 0.03381998
000110 6b 71 c0 bc 1f 16 9b 3d 53 0f 94 bd d6 ea 04 bd
       -0.023491582 0.07572579 -0.07229485 -0.03245052
000120 47 1b d4 bc ce 7a cd bb 44 8e 91 bc d2 a5 9b 3d
       -0.025891913 -0.006270743 -0.017768033 0.07599987
000130 c8 98 8e bd 34 e6 e6 bc a1 31 85 3d 5e e2 5b 3d
       -0.069627345 -0.028185941 0.065036066 0.053682677
000140 29 e5 31 3c 21 08 41 3d bb d3 25 3c de 43 28 3c
       0.010857859 0.047126893 0.010121281 0.010270087
000150 aa 40 0a 3d 95 d2 bf 3c 41 d9 c0 3c 43 b6 62 3d
       0.033753075 0.023415843 0.023541095 0.0553496
000160 f5 bd a8 bc 3d ba 15 bd ea ea a7 bd 51 3f fc 3c
       -0.020598391 -0.036554564 -0.08199103 0.03079191
000170 e3 41 40 3b af ff 00 3d 42 56 22 3d e2 d0 8e 3d
       0.0029336147 0.03149384 0.039633043 0.06973435
000180 23 4e 83 bd bb c7 36 3d 32 71 1d bd 16 dd 99 bd
       -0.06411388 0.04462407 -0.03843803 -0.07512872
000190 c0 11 b3 bb dc 4d 42 3d a0 5b b3 3c 8d 3c a4 bb
       -0.0054647624 0.047437534 0.021894276 -0.005012101
0001a0 99 b2 9d 3c a6 0a 03 bd ad 06 b2 3c ca d5 d2 3a
       0.019250201 -0.031992577 0.021731699 0.0016085443
0001b0 37 b7 13 bd 46 1a 2a bd 4b f4 2c 3d bd dc 99 3d
       -0.0360634 -0.041528963 0.042225163 0.075128056
0001c0 b6 7e 1b 3d 1b c8 12 bd 5d 1c c4 3c e6 66 aa bc
       0.037962638 -0.035835367 0.023939306 -0.020801019
0001d0 91 6b 0c bd a7 3d 2f 3d d8 17 61 3d 1e ee be 3c
       -0.03428227 0.042783406 0.05495438 0.023306902
0001e0 41 54 8c bd e2 eb 5a bd de 8d 3b 3d 4a 92 a1 3d
       -0.06852008 -0.05344761 0.045789592 0.078892305
0001f0 95 3b 0e bd 15 1a eb b9 2d 5d 87 3d 08 2b 56 bc
       -0.03472479 -0.00044842125 0.06609569 -0.013071783
000200 28 fc 52 bd 20 a1 55 bd bc 09 33 3d e8 b5 2c bd
       -0.051510006 -0.052155614 0.043710455 -0.042165667
000210 fb f1 75 bd c1 a8 45 3d 7c 25 43 3d f0 86 5f 3c
       -0.060045224 0.04825664 0.04764317 0.013643011
000220 c6 22 a1 bc f7 f5 83 bd 21 54 82 bd da 53 32 3d
       -0.019669902 -0.064433984 -0.063637026 0.043537
000230 fb bf 95 bd c0 3f 16 3d 1c 9d c6 3d 5d cb 45 bc
       -0.07312008 0.03668189 0.09697935 -0.012072411
000240 1a 99 52 bd 3a 65 3b 3d 50 9f c3 3d 72 fc 5d bd
       -0.05141554 0.045750834 0.09551871 -0.05419583
000250 9b f7 84 bd b4 29 07 3d 37 57 ca bc 30 38 b9 3c
       -0.064925395 0.032998756 -0.02469979 0.0226098
000260 ab 96 70 3d 8f 58 89 3d 67 30 77 3d ea b8 8b 3c
       0.05873744 0.06706344 0.060348894 0.017055947
000270 4b 2a ca 3c 5a 58 82 3d 25 ad 14 3d 54 34 c2 3c
       0.02467837 0.06364508 0.036297936 0.023706593
000280 25 1b cd bb 96 85 b0 3c 8a c8 62 3c 70 4a 8b 3d
       -0.0062593394 0.021548074 0.013841758 0.06801307
000290 1f 1d 94 bd 62 ca 83 3d 1e 0b f8 bc d5 3d 2d bd
       -0.07232117 0.06435086 -0.030278739 -0.042295296
0002a0 f1 9f 92 bd a7 75 20 bd 49 0a 5b 3d d0 7a 51 3d
       -0.07159413 -0.039174702 0.053476606 0.051142514
0002b0 23 3a 7f bd e2 c8 46 3d 1b b8 36 bd 15 78 0d bd
       -0.062311303 0.04853142 -0.04460917 -0.034538347
0002c0 5f 06 6b 3a 63 7c a4 bc 03 b3 d4 3c be a7 01 3c
       0.0008965488 -0.020078843 0.025964266 0.007913528
0002d0 94 6e 4c bc 81 a7 4a 3d ea a5 e8 3c cb fa 4f 3d
       -0.012477536 0.04947615 0.028399426 0.050776284
0002e0 07 02 6d bc 86 77 11 3c d6 82 19 3d 5f 6e 80 bd
       -0.014465815 0.008878594 0.03747829 -0.062710516
0002f0 cf f0 47 bc 68 7a d0 3a 85 db 99 bb 00 d5 94 ba
       -0.012203409 0.001590562 -0.004695358 -0.0011354983
000300 86 83 8d bd 97 6a 76 bd 1e bf 39 bd 80 e7 55 3d
       -0.06909852 -0.060160246 -0.04534828 0.05222273
000310 b0 82 47 bd 96 a9 ae bc d0 d5 c6 3b 70 45 78 3d
       -0.048708618 -0.0213211 0.006067969 0.060613096
000320 14 ab 9e 3c 3a 40 c2 bc fb 82 87 bd d0 4c a0 3b
       0.019368686 -0.023712266 -0.066167794 0.0048919693
000330 7a 61 01 3d e8 a6 59 bc 04 c8 e9 3c 40 22 32 bb
       0.0315871 -0.013284422 0.028537758 -0.002718106
000340 b4 c3 88 3d c0 14 1f bb 86 49 20 3d b2 73 85 3d
       0.066779524 -0.0024273843 0.039132617 0.06516208
000350 78 43 1d 3c e8 5c 73 3c 1c c5 8b bc 00 55 59 bb
       0.009598605 0.014853694 -0.017061763 -0.0033162236
000360 c4 bd de bc 7a 63 c1 bd 7b 2a 81 3b 8e ed 04 3e
       -0.027190097 -0.09442802 0.0039418316 0.12981245
000370 91 0d 92 3d e3 d7 09 3d 66 28 d1 bb 7b 02 b0 3b
       0.07131494 0.03365315 -0.0063829897 0.0053713894
000380 e3 bd b1 3d 1a d6 06 bb 38 37 f3 3c 37 3a 52 bc
       0.08678796 -0.0020574392 0.029689416 -0.012831262
000390 1e fd c3 3d 13 d0 05 3e 2d 3a b6 3d 4e d8 12 be
       0.09569763 0.13067655 0.08897815 -0.14340326
0003a0 fa 47 b2 3c 70 f7 88 3c 69 87 1d be ab d8 41 bd
       0.021762837 0.01671955 -0.15383686 -0.04732577
0003b0 98 3e dc 3c 29 a9 d9 3b f9 28 40 bd 02 57 75 3d
       0.026885316 0.00664248 -0.046914075 0.05989743
0003c0 15 98 30 bd 3e fd 2b bd 00 10 4e bd 1a 62 5e bd
       -0.043113787 -0.041989557 -0.050308228 -0.054292776
0003d0 d8 3f 1f bc fa 8d 56 bd c4 e2 dd 3c ce ba 21 bd
       -0.009719811 -0.052381493 0.02708567 -0.03948479
0003e0 f8 b5 48 3c 20 b2 4e bb a4 bc 90 3d 8f 28 48 3d
       0.012250416 -0.0031539276 0.0706723 0.048866805
0003f0 32 a2 80 bd 8a 87 3c 3d d3 16 93 3d 95 88 c3 bd
       -0.06280936 0.046027698 0.07182088 -0.09547535

i2h.bias f4 [128]
000000 5f c5 93 38 87 70 28 bd 3b e6 cd bd 2f d1 e4 3d
       7.0462695e-05 -0.04112294 -0.100536786 0.11172711
000010 16 8a 24 bc a4 b3 08 bd 27 a7 ec 3d 62 5b 0c 3e
       -0.010042688 -0.033374444 0.11555319 0.13706735
000020 cf cc a5 3d db 8d 23 3e 44 14 37 3e cb 9d 39 3e
       0.08095705 0.15972082 0.17878824 0.181266
000030 e6 97 45 3d 5e 0b 32 3d 74 ed 67 be 5f db 74 3d
       0.048240565 0.04346787 -0.22649175 0.05977952
000040 bd a7 61 3e d7 d4 e7 bd d9 8f f8 3b 4d 81 58 be
       0.22036643 -0.11319893 0.0075855074 -0.21143074
000050 b2 82 08 3e 4b 6d da bc 70 9e d3 bd bf 08 0e be
       0.13331106 -0.026663443 -0.10332954 -0.13870524
000060 80 6c 89 bd 5a 6f b7 3d 12 88 0d be 6d 2b 47 bc
       -0.06710148 0.089567855 -0.13821438 -0.01215635
000070 71 2b 1d 3e 31 d9 4e be c3 96 1b 3e 97 cd eb 3c
       0.15348603 -0.2020004 0.1519423 0.028784556
000080 0a 5b b6 3c db a1 91 3d 58 a4 74 3c 81 36 8f bd
       0.022260208 0.071109496 0.014931761 -0.06992818
000090 83 11 2f 3b 76 50 07 3c d4 65 f4 bd 03 d6 1d bd
       0.0026713319 0.0082589295 -0.11933485 -0.038534176
0000a0 db 27 aa 3b 12 3d c0 3d a6 a7 08 3e 07 ff 71 3e
       0.0051927394 0.09386648 0.13345203 0.23632441
0000b0 8e dc a3 3b 4e 76 68 3e a2 3e 9b bd 02 e3 27 3e
       0.0050006574 0.2270138 -0.07580306 0.1639519
0000c0 6e 33 8a bd 79 29 80 bd d1 28 f1 bc 76 38 ce 3d
       -0.06748091 -0.0625791 -0.029438408 0.10069363
0000d0 d7 eb 18 3d dc 3d ff bd 9d fb 7d bd 08 59 fa bd
       0.03733429 -0.124629706 -0.062007535 -0.122240126
0000e0 31 17 37 bb 46 8a 55 3d 45 2f 82 bd ae 6e 78 bd
       -0.0027937407 0.05213382 -0.06356672 -0.060652427
0000f0 c1 6d 25 3d 41 3c 45 3d d4 2c 81 3d 9d 70 72 3c
       0.040387873 0.048153166 0.063073784 0.014797357
000100 49 11 19 3e 02 fa 0c 3e 37 bf a4 3d ca 55 fe bb
       0.14948 0.13767245 0.08044284 -0.0077616917
000110 3b 06 8c 3c 95 c4 fc bd a3 08 03 3e 10 94 4c ba
       0.017092815 -0.123421825 0.12796263 -0.00078040455
000120 5a 17 19 be b3 c9 30 be 9d 22 39 3d d2 ed 0b be
       -0.14950314 -0.17264442 0.045199025 -0.1366494
000130 8c b4 e0 3c 2e 71 67 3e d8 40 a6 3d 47 30 f2 3d
       0.027429841 0.22601768 0.08117837 0.118256144
000140 89 eb 59 3e ea 90 9f bc 25 e0 1b 3e 5a ff 3d 3d
       0.21281256 -0.01947828 0.15222223 0.0463861
000150 e3 f2 20 3e 1c 32 00 be 82 1c 0c 3d e0 d3 69 3d
       0.15717654 -0.12519115 0.034206875 0.057086825
000160 ec 32 04 be 47 f4 e6 3d 1e 43 b9 3c 46 e6 a2 bd
       -0.1291005 0.11277061 0.022615012 -0.079540774
000170 29 e9 0a be f7 36 db 3d fe 68 d9 3d 1f 67 40 3d
       -0.13565506 0.10703843 0.10615729 0.046973344
000180 5b b6 7a 3d dd 38 b0 3d f7 ad 7a 3c a5 93 7e bd
       0.061209064 0.08604596 0.0153002655 -0.062152524
000190 41 5f df bd f6 a1 6d be f8 eb f4 3d bf 50 c7 3c
       -0.1090684 -0.23206314 0.1195907 0.024330495
0001a0 bb 11 a6 3c 54 24 bb bd c7 18 87 bd d9 18 a8 bd
       0.020272126 -0.091377884 -0.06596523 -0.08207864
0001b0 e3 af 23 3d c9 3f 8e bd 87 cc cf 3c 24 f8 9e bc
       0.03996266 -0.0694576 0.02536608 -0.019405432
0001c0 3d 72 48 3d dd 48 a3 3d 0d 0c 7b 3d 8f 77 3d be
       0.04893707 0.07972882 0.06129079 -0.18502639
0001d0 01 56 00 bd 69 04 fd 3d 97 0d ab bd 41 5e 1c be
       -0.03133202 0.12354357 -0.083522014 -0.1527033
0001e0 78 18 1e be 14 5a 97 bd 18 14 1b 3c a7 8a 88 bc
       -0.15439022 -0.07390228 0.00946524 -0.016667677
0001f0 19 63 54 3d 93 ab 77 3b a1 f6 13 be f3 0f a6 3d
       0.05185232 0.0037791475 -0.1444955 0.08108511

i2o.weight f4 [3, 191]
000000 6a 63 09 bd 54 9c cf 3c ce 35 17 bd d8 b9 77 3d
       -0.033542074 0.025343098 -0.036916547 0.06047997
000010 f0 a1 85 3b 58 f5 3b 3c 4e cb e7 bc a3 eb 30 bd
       0.0040781423 0.011472069 -0.028295185 -0.04319347
000020 ee 17 0f 3d 88 77 3c 3c 88 3b 87 3c d0 7d 2e 3c
       0.03493493 0.011503108 0.016507879 0.010650113
000030 48 42 22 bc 24 a5 12 3d fc c2 1f 3d ec 43 f8 3c
       -0.009903498 0.03580202 0.03900431 0.030305825
000040 15 68 8e bd dc 09 5b bd 88 38 32 bc 00 98 3e 3b
       -0.06953446 -0.0534762 -0.010877736 0.0029082298
000050 8c 49 fd 3c 7c 61 8f 3d 2f 51 84 bd c1 95 0e bd
       0.030918859 0.070010155 -0.06460797 -0.034810785
000060 8a 5d 0f 3d 8e 2c 3a 3d f9 f7 19 3f ed 33 d4 3e
       0.035001315 0.045452647 0.60144 0.41445866
000070 19 10 67 bd f8 bc c9 3d ed 93 32 3d bc 86 84 3c
       -0.056411836 0.09850496 0.043598104 0.016177528
000080 03 4e 8e 3e 6e 04 6d bd 54 ae e1 be 10 c1 86 bd
       0.27793893 -0.057865553 -0.44078314 -0.065797925
000090 04 5e ed 3e e3 be dd 3e 22 4d 2b 3d 24 9d 18 3e
       0.4636079 0.43309698 0.041821606 0.14903694
0000a0 98 6f f2 3c e3 a4 d0 3e a8 27 45 3c 15 7b ce 3e
       0.029594228 0.407508 0.012033381 0.4032828
0000b0 80 2d e1 3a 70 18 ac be c0 1f 5d bb 48 69 e4 3c
       0.0017179698 -0.33612394 -0.0033740848 0.027882233
0000c0 52 b9 88 bd 0b 11 33 3f 2c 0c 4a 3d 7d 78 d7 3d
       -0.06675972 0.6994788 0.049328014 0.10521028
0000d0 08 45 d4 3c 00 21 64 3b 40 80 55 bb 71 48 7c bd
       0.025911823 0.0034809709 -0.0032577664 -0.061592523
0000e0 00 75 fe 3a f6 43 91 3d fa 32 75 bd 08 2d 04 bc
       0.0019413531 0.07093041 -0.05986307 -0.008067377
0000f0 80 15 3a 3b a2 40 8a 3d 28 61 f0 3c c9 2a 74 bd
       0.0028394163 0.06750609 0.029343203 -0.059611116
000100 4f 14 40 bd d6 4f de bd da e4 0a 3d a2 74 fb 3c
       -0.046894368 -0.10855071 0.033909656 0.030695263
000110 6e 16 48 bd 29 0d 2f 3e 26 5a 1c 3e 91 80 ee 3d
       -0.048849516 0.17094864 0.15268764 0.11645616
000120 ff b8 15 3e 80 b6 30 3e 69 88 87 3e 01 1d 6f bc
       0.14621352 0.17257118 0.2647126 -0.014594317
000130 e8 c5 f7 3d 13 27 56 be d6 53 27 3b 57 e9 8b 3e
       0.120982945 -0.20913343 0.0025532148 0.27326462
000140 97 96 ff bd 09 a1 1d be 29 c1 4e be db 8c be 3d
       -0.124798946 -0.15393461 -0.20190872 0.0930421
000150 d9 40 43 3d 42 fd 08 be df a4 74 be fd 1d 89 bd
       0.047669265 -0.1337786 -0.23891018 -0.06695173
000160 49 97 c0 3d 6d b6 3c be 79 10 a5 bd 57 76 3e 3e
       0.09403855 -0.18428965 -0.080597825 0.1859983
000170 c2 c7 9a be 42 fc ed 3d 77 35 7c bc 3f 45 28 3d
       -0.30230528 0.1162038 -0.015393606 0.041081663
000180 70 e4 81 3d 06 24 a4 3c 1f 3b 43 bd ec 52 fa bc
       0.06342399 0.020036709 -0.047663804 -0.030557118
000190 e9 35 57 bd 9c b1 12 be 40 dd 37 bd f1 0a d9 3d
       -0.052541647 -0.14325565 -0.044888735 0.1059779
0001a0 c4 e1 e2 3d 1b a4 2d 3e cb cb 8b 3e 5b 89 ac bc
       0.110782176 0.16957133 0.2730392 -0.02106159
0001b0 ed 4a 7e 3e d9 c7 e0 bd 57 72 43 3e ab 7f 80 bc
       0.2483327 -0.10975618 0.19086586 -0.015685877
0001c0 97 12 27 be db 95 c4 bd 37 86 33 3e 84 9f b2 3b
       -0.16315685 -0.09598895 0.17531668 0.0054511447
0001d0 a2 cc 2b be f8 99 ae bd ae 74 dc bd 2b e0 48 3d
       -0.1677728 -0.08525461 -0.107644424 0.04904191
0001e0 b6 ba a7 3c 5c 0f e6 bd 89 5e 0a be 40 1f b8 3d
       0.020474773 -0.11233398 -0.13512625 0.089903355
0001f0 66 54 9a 3d db b5 25 3d 4c 3c dd 3b ad 96 67 3e
       0.07535629 0.040456634 0.0067515727 0.22616072
000200 a9 a6 54 3e ac 04 ef 3c 2a 96 d8 bd 96 dd 5d bd
       0.20766701 0.029177032 -0.105755165 -0.0541664
000210 c2 61 22 be 18 f2 38 3e 8d 36 19 3c ea 5e 8f be
       -0.15857604 0.18061101 0.009351385 -0.280021
000220 f1 36 3d be 43 d7 58 bd b3 4a 29 be 70 0e 37 3d
       -0.1847799 -0.052939665 -0.16532402 0.044691503
000230 e6 3c 92 3e 8b a7 af 3d 0d a3 b5 3d eb 0d 59 3e
       0.28562087 0.08576878 0.0886899 0.21196716
000240 9f 5a cb bd ae c4 2e 3e 13 fc b9 3d 99 79 81 3e
       -0.09929394 0.17067215 0.090812825 0.25288084
000250 90 42 c0 bd 06 54 bd 3d c3 92 dd 3d 21 6b 1e be
       -0.09387696 0.09244542 0.10819008 -0.15470554
000260 9c aa 31 3e 9e a1 1e 3d 7a 15 bb bd 1a 90 6c be
       0.17350239 0.03872835 -0.09134956 -0.23101845
000270 1c 6b 30 3e 9d 4a 5b 3d 88 d1 c6 bc 72 48 0a 3d
       0.17228359 0.053537954 -0.024269834 0.033760495
000280 25 90 9b 3d b4 b5 bc 3d ee 9a 04 be 92 09 cf bd
       0.07595853 0.092143446 -0.12949726 -0.10109247
000290 ea 93 75 be 1d 3e 3c 3e 47 78 ad bb ce d4 21 3d
       -0.23982206 0.1838307 -0.005293879 0.039509587
0002a0 b8 4f a8 bd e4 b7 e3 bd 27 24 31 be ab 7c e8 3d
       -0.0821833 -0.11119059 -0.17298947 0.113519035
0002b0 90 90 4d bd 5d 5f fd 3d 9c b7 24 be ba 2c c4 bb
       -0.050186694 0.12371705 -0.16085666 -0.005986777
0002c0 0d 66 68 3d 42 6d 16 3e 22 9d 7a be 3b c6 9a bd
       0.05673795 0.14690116 -0.24474004 -0.07557341
0002d0 62 1d d9 3d 99 38 14 be 6b 04 6c be d5 91 48 be
       0.106013075 -0.14474715 -0.2304856 -0.1958688
0002e0 86 78 f9 bd 6d 19 f1 bb 1a 43 06 be 62 52 0f 3e
       -0.12181191 -0.0073577673 -0.13111535 0.1399627
0002f0 21 03 08 3d 60 aa 07 be 74 fc 31 3d 72 ba 0d bd
       0.03320611 -0.13248587 0.04345365 -0.034601636
000300 9a 3a 0e bd 4a 96 d4 bc 28 f3 2a bd 88 7f 27 3d
       -0.034723856 -0.02595057 -0.041735798 0.040893108
000310 6c 26 49 bc 44 7a 80 3c 28 07 ac 3c c0 9e 13 3b
       -0.012277227 0.0156833 0.020999506 0.0022525042
000320 00 59 39 3a 8e 36 09 3d 20 a4 41 bb 25 c1 14 bd
       0.0007070452 0.033499293 -0.002954729 -0.03631701
000330 18 ee 9f bc e4 95 26 bc 60 4e 79 bd c0 94 42 3d
       -0.019522712 -0.010167573 -0.06086576 0.04750514
000340 ac ca 77 3d 8b e2 45 bd 68 51 22 3c 37 11 85 bd
       0.060496017 -0.04831175 0.009907104 -0.06497424
000350 f0 ae ac bc d8 6d 4f bc 20 e0 24 bd 9c f7 0a 3d
       -0.02107951 -0.012660466 -0.040252805 0.033927545
000360 80 c3 0a 3c 43 35 03 be 52 ec 61 be 08 0a 26 3d
       0.008469462 -0.12813286 -0.22062805 0.04053691
000370 31 e3 bd bd f6 e5 de 3e 38 c6 4a 3c 72 a8 0c be
       -0.09271849 0.4353482 0.012376361 -0.13736132
000380 17 e9 07 3e ec fa 9a be 92 82 6b bd d6 1a 62 be
       0.1327251 -0.30269563 -0.05749757 -0.2208055
000390 56 0e 93 be 3f ca 00 bd 17 a8 92 3d 20 42 a8 bc
       -0.28721875 -0.031442877 0.07160967 -0.020539343
0003a0 da 6a 13 be da 9c 4a bd fb 9b 26 3d 76 f1 3c bd
       -0.1439623 -0.04946599 0.0406761 -0.046128713
0003b0 d6 91 a6 be 94 c7 7f bd b2 33 0d 3d 89 7c 79 3e
       -0.3253314 -0.062446192 0.03447313 0.24363913
0003c0 6c 76 83 be fc cd 69 bc e5 5c fb bd 94 9b fb bc
       -0.25676286 -0.014270302 -0.122735776 -0.030713834
0003d0 54 9e f1 3c 8c 3c 71 3d 10 84 2d bc d8 cb 38 3c
       0.029494442 0.058895633 -0.010590568 0.011279069
0003e0 20 c3 da bb 59 1f 1a bd 15 1f 25 bd a0 d2 55 3d
       -0.0066760927 -0.03762755 -0.040312845 0.05220282
0003f0 40 73 8b bd d2 2a 82 bc 88 0c b4 bd 07 d9 34 bd
       -0.068090916 -0.015889559 -0.08791453 -0.044152286

i2o.bias f4 [3]
000000 2f 63 56 40 7a 08 da bf 36 7e d7 bf
       3.3498037 -1.7033837 -1.6835392
